CS290T_Project2/ddpg_pendulum_actor.pth (torch, 2719 bytes, 3 tensors)

fc1.weight f4 [64, 3]
000000 65 55 9b bb 2e 06 d2 bf ff 90 cb be 16 2e e8 bf
       -0.0047404044 -1.6408136 -0.3975906 -1.8139064
000010 74 98 54 be 37 c4 26 3e d7 12 2a 3f 7d cc c3 3e
       -0.20761281 0.16285788 0.66435 0.3824195
000020 25 83 1a be 57 11 19 3f 12 f0 bb 3e be 74 a2 bc
       -0.1508909 0.59792084 0.36706597 -0.019831058
000030 f8 0d 0f bf 1a c5 c6 bf 36 5e be be 9a 98 66 be
       -0.5588069 -1.5528901 -0.37181252 -0.2251915
000040 8b b2 bd 3e 8d 42 95 3e 74 1d ef bf 6a 18 ea be
       0.3705028 0.29152337 -1.8680863 -0.4572175
000050 2a 79 0b 3e c6 1a 12 be e2 81 69 be 64 25 cf 3e
       0.13620439 -0.14268026 -0.22803453 0.40458214
000060 7e d7 81 be 5d 75 1d 3e e1 ee f3 3e 65 e2 86 bf
       -0.2535972 0.15376802 0.47643188 -1.053784
000070 bf 81 60 bd 92 8a 18 bf 86 94 38 bf c3 0f 74 3e
       -0.054811236 -0.5958644 -0.7210163 0.23834138
000080 ac cc 07 bf 46 30 e6 be d7 d8 82 be 15 a8 21 bf
       -0.5304668 -0.44958705 -0.2555606 -0.631471
000090 52 f7 88 be 9d 50 c3 3f f3 4f 84 3e 17 18 2a 3f
       -0.2675119 1.5258976 0.25842246 0.6644301
0000a0 8a a8 b0 be 58 fc 8b bd 4a 62 e2 be c1 bf b7 be
       -0.34503585 -0.0683524 -0.44215614 -0.35888484
0000b0 54 e4 97 be 7d c6 8f 3d d4 71 89 3f c6 50 8c 3e
       -0.29666388 0.070202805 1.0737863 0.27405375
0000c0 0b 81 29 3e d8 45 cb 3e cd 72 a0 3e eb de 0a be
       0.16553132 0.39701724 0.31337586 -0.13561599
0000d0 14 be 9f 3f 03 b7 e8 3d 92 75 0f 3f e7 4d 27 bf
       1.2479882 0.11363032 0.56038773 -0.65353245
0000e0 91 88 2f 3f 1b 41 63 bf 67 62 a8 be b0 49 03 bf
       0.6856776 -0.8877122 -0.32887575 -0.51284313
0000f0 0c 95 91 3e 12 7a ab 3e ac 14 00 bf 56 fd 15 3e
       0.28434026 0.3349157 -0.5003154 0.14647421
000100 4f 21 05 3f e4 13 bc bd 22 b3 6a bd 8a 56 28 3f
       0.5200395 -0.09183481 -0.05729974 0.6575705
000110 d0 0e 5d 3e 14 b4 87 3e 43 3a c4 bf 9c 96 ce be
       0.21587682 0.26504576 -1.533028 -0.4034928
000120 13 74 80 3f d8 d0 1c 3f 2b b9 18 3f 72 ea ee 3e
       1.0035423 0.6125617 0.59657544 0.46663243
000130 71 13 d9 be 7c 79 06 bf d7 93 5d be 8f bf 33 bc
       -0.42397645 -0.5252912 -0.21638428 -0.010970964
000140 b2 ad c4 be 2d 16 5e be 20 42 8e 3e 08 04 46 bf
       -0.3841377 -0.21688147 0.27784824 -0.773499
000150 e1 47 3d be 5d d2 a2 bf 3c c1 51 be 78 c0 8d bf
       -0.18484451 -1.2720448 -0.2048387 -1.1074362
000160 bf c8 12 be 55 ed e9 be 3c 67 f6 bd 60 a1 73 3e
       -0.14334391 -0.45688882 -0.12031409 0.23792028
000170 a6 fd 96 3e 1a 1e 1a 3e e4 33 8a bf 08 d2 04 bf
       0.29490393 0.15050545 -1.0797086 -0.5188298
000180 79 90 14 3f 0a 80 c1 bf e7 ac b2 be 93 c5 0f bf
       0.5803295 -1.51172 -0.3489754 -0.5616085
000190 51 06 61 3f 75 e9 9d 3e 88 68 f5 be e5 1a e6 bf
       0.87900263 0.30842176 -0.47931314 -1.7976958
0001a0 33 80 db be fc 25 49 3e ff 78 59 bf 61 82 1c bf
       -0.42871246 0.19643396 -0.8495025 -0.6113644
0001b0 29 cf 7c bf e2 4b 52 3e 33 e0 8b be fd 81 92 be
       -0.987536 0.2053676 -0.27319488 -0.28614798
0001c0 da 46 df bd 2e ca 02 3f 20 ec db be 28 c3 c2 bf
       -0.10902186 0.5108975 -0.42953587 -1.5215807
0001d0 9b 15 4b be c4 30 b1 bd 1b ea 0f 3f 0e 96 19 3e
       -0.1983246 -0.086518794 0.5621659 0.14998648
0001e0 4a 41 68 3e 33 af a7 be 99 59 00 bf f8 6b 8c bd
       0.22681156 -0.32750854 -0.50136715 -0.06856531
0001f0 04 8f 39 be 06 11 b5 be 88 19 f1 be 5e a4 4f bf
       -0.18120962 -0.3536455 -0.4708979 -0.8111018
000200 e8 16 81 3d 00 f1 7d bf 8d f2 dd be bd 8f d6 3d
       0.06303197 -0.9919586 -0.43349114 0.10476635
000210 33 ed 81 3d b4 2f 9e 3e 08 67 97 3e 92 8e 23 3c
       0.0634407 0.3089577 0.29570794 0.009982722
000220 d2 1e 54 bf a8 d1 bc bc 54 04 f2 bc 96 2e a9 3e
       -0.8285953 -0.02304919 -0.02954308 0.33043355
000230 5c 4a 17 3f 44 03 63 3f e9 cc 09 3f 1b 6b 54 be
       0.5909784 0.8867686 0.53828293 -0.20743982
000240 40 1b e5 bf 38 e6 a8 be 89 84 1e 3e 77 8e 8c bf
       -1.7898941 -0.32988143 0.15480246 -1.0980977
000250 46 71 e5 bd 47 f4 19 bf 72 eb 13 bf f7 e2 a4 bf
       -0.11203246 -0.6013836 -0.57781136 -1.2881764
000260 58 76 21 3d 51 30 dc 3e f8 1e b8 3e 96 b6 3e bf
       0.039419502 0.43005612 0.35961127 -0.74497354
000270 7d 96 7c 3e af 90 ce bf 66 f0 95 be 1a bf 8e 3e
       0.24666782 -1.6137904 -0.29284972 0.27880174
000280 3e 29 aa bf d4 d6 93 be a9 be 91 bf 62 0c f1 be
       -1.3293836 -0.28874838 -1.138631 -0.4707976
000290 83 2d 09 bf 10 bc f3 bf 9d 51 19 3d 31 78 29 3e
       -0.5358507 -1.9041767 0.037431348 0.16549756
0002a0 3e 65 15 bf 42 c8 f3 3d 61 64 06 3f 2c d0 eb be
       -0.5835761 0.119034305 0.52496916 -0.4605726
0002b0 4e df b9 3e 8f 0c a8 3e bd 27 5c bf 1b 5c 36 be
       0.3630318 0.3282208 -0.85998136 -0.17808573
0002c0 73 e2 aa bd 6a 42 ce be 8a e2 b1 3d b8 38 21 bf
       -0.08343973 -0.40285045 0.08685787 -0.6297717
0002d0 b1 27 04 3e 0e 43 81 3f f3 c1 87 3e e3 44 a0 be
       0.12905766 1.0098588 0.2651516 -0.31302556
0002e0 62 f1 c1 3f 40 0f 62 3e 2a 67 bd be dd 8c 67 bc
       1.5151789 0.2207613 -0.3699277 -0.0141327055
0002f0 14 ce 1d bf f6 ec c9 bd 60 31 73 3f 1f 82 a2 3e
       -0.61642575 -0.0985965 0.94997215 0.317399

fc1.bias f4 [64]
000000 e6 f5 24 bf 23 fc bd 3d 88 88 ef be 6c 48 c8 be
       -0.6443771 0.09276607 -0.46783853 -0.39117754
000010 1f da d1 bd 37 7e 93 3e 79 4a 3f 3c 68 80 aa 3e
       -0.102466814 0.28807232 0.0116754705 0.3330109
000020 1e ea 9f 3e 60 d6 2a 3f 62 4e d2 3e 07 42 6e bf
       0.31233305 0.6673336 0.41075426 -0.930695
000030 6b aa 2a bd 8f 54 cb 3e 9a f2 3a bf 1c cc d3 3e
       -0.04166643 0.3971295 -0.7302643 0.4136666
000040 8e 3a eb 3d 86 92 76 3d 71 5d cb be 69 53 e0 3e
       0.11485778 0.06019833 -0.39719728 0.43813637
000050 eb a1 dc be 98 4f 0e bf e6 5f 30 3e 2b c5 1e 3e
       -0.43092284 -0.555902 0.17224082 0.15504901
000060 27 f8 06 bf 11 1d 73 bf 83 2f 7f 3f 90 57 74 bf
       -0.527224 -0.94966227 0.9968187 -0.9544611
000070 59 6f de 3d c9 b5 3e 3f e3 46 25 bf 2c c6 a1 be
       0.10861082 0.7449613 -0.6456129 -0.31596506
000080 10 bf 91 bf 47 32 f8 3e 1f c4 8b be d6 07 c1 be
       -1.1386433 0.4847586 -0.27298066 -0.3770129
000090 ef b0 51 bf 2e 60 a5 3e 72 e5 56 3c a6 28 a5 3e
       -0.81910604 0.32299942 0.013116227 0.32257575
0000a0 40 8c a4 be 9c 0e 67 3f a2 67 a5 3e 32 a1 f7 be
       -0.32138252 0.9025667 0.32305628 -0.4836517
0000b0 aa a3 20 3e 8e 7c ef be 24 ed b2 bf eb 28 a6 3e
       0.15687433 -0.46774715 -1.397862 0.32453093
0000c0 cb 9a a0 3e f2 c7 30 3f ad 6a 9f 3e c4 62 df be
       0.31368098 0.6905509 0.31136075 -0.4363004
0000d0 28 82 25 3e 13 29 45 bf 29 19 1b 3f 0b 24 9e bd
       0.16162932 -0.770158 0.60585266 -0.077217184
0000e0 bd 08 27 3f 0b 59 f9 be 42 06 26 bf f1 78 41 bf
       0.6524771 -0.48700747 -0.648533 -0.75575167
0000f0 ab 3b b7 3e 9e 4a fe bc 24 53 41 bf be 0a 85 3e
       0.3578771 -0.03104144 -0.7551749 0.25984758

fc2.weight f4 [1, 64]
000000 4c c3 75 bf 1b 09 12 3f 51 fd 35 bf 8a e8 57 bf
       -0.96001124 0.57045144 -0.71089655 -0.843392
000010 b0 ce 54 bf da 6b d2 3d 7f 71 30 3f b9 67 c9 3d
       -0.8312788 0.10274477 0.6892318 0.09834237
000020 ed 87 ac 3d 97 fd bd be 04 f0 82 be 93 bf 79 3e
       0.08424363 -0.37107536 -0.25573742 0.24389486
000030 df 02 3a 3f 3d 59 48 3e 1a a7 74 3e a6 4c 34 be
       0.7266063 0.19565292 0.23891869 -0.17607364
000040 f5 56 3a be 47 b5 d3 3e 4c 98 60 bf 8b 35 ea be
       -0.18197234 0.4134924 -0.87732387 -0.45743975
000050 0c bd b3 3e 4e de 49 bf 19 f6 25 3e b8 81 d5 3e
       0.3510517 -0.78854835 0.1620716 0.4170053
000060 ab fa ee be 44 61 19 3f 6f 87 90 be a1 79 cf 3e
       -0.4667562 0.5991404 -0.28228328 0.40522483
000070 34 d1 8e 3f 18 fd bb be b1 90 d6 be c2 60 ea 3e
       1.1157594 -0.36716533 -0.41907266 0.45776945
000080 85 15 ce bf 80 c1 9d 3e dd 24 34 bf 1d df c4 3e
       -1.6100317 0.3081169 -0.7036875 0.38451472
000090 0b ac f8 3e df 07 88 3d 82 12 a3 3f 27 ea cc bd
       0.48568758 0.06642126 1.2740023 -0.100055985
0000a0 a2 7b c0 3e 03 21 82 be 34 21 6d 3e bc db 1f bf
       0.37594324 -0.2541581 0.23157197 -0.62444663
0000b0 38 a6 8f bd 10 ef ab 3f 85 99 3d bf de 10 c0 3e
       -0.070141256 1.3432331 -0.7406238 0.3751287
0000c0 74 75 6c 3e ea 89 ec be 93 15 df 3e 44 f8 95 3e
       0.2309168 -0.4619897 0.43571147 0.29290974
0000d0 7a 76 07 3f 67 57 f4 bf 89 e3 fc be 7d 51 07 3f
       0.52915156 -1.9089173 -0.49392346 0.52858716
0000e0 e1 cf 43 3e 34 03 a4 be 90 15 f2 be 2b 2c 9f 3e
       0.19122268 -0.32033694 -0.47282076 0.31088385
0000f0 bc a3 49 be 6f 53 40 3f 09 b3 94 3e d9 c0 fd 3d
       -0.19691366 0.7512731 0.29042843 0.123902984
