CS290T_Project2/ddpg_pendulum_critic.pth (torch, 19991 bytes, 5 tensors)

fc1.weight f4 [64, 4]
0.59570473 1.4231462 0.4397474 0.29689038 0.28352496 1.938805 -0.44883794 -0.025933964
-1.2560514 -0.8182973 -0.07051649 0.24636647 0.442971 -1.6651987 0.30868375 0.39758015
2.5864599 2.3249426 0.7619815 0.02509721 0.57382154 2.1939397 0.44248548 -0.23651715
0.24924523 1.8631576 0.086312115 -0.33664843 0.24886882 2.8172984 0.4121943 -0.0688185
-0.30189955 2.1587443 0.33408535 -0.122086436 -0.7453197 0.033795472 0.27875316 0.064189084
-0.66056395 -0.7076079 0.3254582 -0.32104647 -0.89415395 1.5739489 -0.4865797 -0.28803203
-1.0525743 0.8448737 0.28619158 0.10548542 -0.11646548 -1.8045197 -0.37105608 -0.098397695
1.4670575 -0.036566805 0.623018 0.35069352 2.0406468 1.1656276 -0.116123326 -0.27384377
0.33659637 2.1332238 0.4467193 0.2284351 1.2068853 -0.018368654 -0.037423387 -0.100311935
-0.9690649 0.66527027 0.18743801 -0.07668611 -0.70015097 2.1535828 0.56727624 0.24733031
-1.312306 0.53182286 0.11119279 0.2821871 -0.83829397 1.7730979 0.047203235 -0.10161828
2.0148633 -0.5423756 0.15921637 0.12393474 0.018292919 -2.6015296 -0.23161416 0.021045666
0.020976549 1.7306648 0.12071472 -0.31872925 0.16276343 1.8830158 -0.062822014 0.09822217
-0.70670384 -1.5541403 -0.32707855 -0.11114178 -0.07627514 -0.08188359 0.51521814 0.22907333
0.21280861 -1.6459451 -0.36529797 -0.052284732 -0.5128746 -1.5104159 -0.3419563 -0.13780165
-1.3390279 1.5292147 0.2610084 0.31532976 -0.23541082 -0.5070356 -0.48000157 0.09313025
-1.1014227 1.3803053 0.29724747 0.08715778 0.5175189 2.5507467 0.51916385 0.10763261
0.2730347 -1.8903391 -0.4152095 -0.04128702 -0.4738743 -1.5373532 -0.32772362 -0.14285076
-0.58322334 -0.6216082 -0.4500744 -0.13889045 -0.37317637 2.4886959 0.53334963 0.21481526
-0.29735097 -1.2442676 -0.26099092 -0.11462125 1.1189165 3.1285555 0.6247098 0.17079294
-0.5582001 -0.63399047 0.22396971 -0.19445017 -0.123339914 1.6610082 0.32554555 0.0926119
0.4343473 -0.36301124 -0.15209438 0.6924508 -1.3375409 0.22208017 -0.049189374 -0.06557244
-0.88294196 1.3426514 0.14330356 -0.22530316 1.6297799 2.94633 0.6418193 0.092051476
-1.1535833 3.555113 0.32489198 -0.29191753 0.08116053 -0.5052298 0.65915173 -0.16477752
-0.28747332 2.567521 0.345614 0.040429067 0.36105716 0.25443026 -0.06770651 0.20010197
0.9726895 -2.437391 -0.4056079 0.11625469 -0.8528213 -2.1461396 -0.4099003 0.006246244
0.29315564 2.4653327 0.5148434 0.23534761 -0.6143175 -1.2817941 -0.014756538 0.18359226
-0.4688059 -0.84526974 0.2687332 -0.2214399 0.6156523 -1.6043326 -0.20827085 -0.116476946
1.7247868 1.1860985 0.5295502 -0.07239667 1.3467271 0.637807 -0.1381631 0.847058
-0.51609486 -1.3624586 0.17837417 -0.14925778 -0.5206355 0.8798948 0.1791785 -0.13345839
0.6296181 2.270507 0.5801869 0.11394167 -0.5357443 -0.6434384 -0.42113537 -0.06925251
0.17127432 1.6586363 -0.11475963 -0.41370574 -0.14421801 3.189966 0.5206838 0.07636683
00000000: 1b80 183f a829 b63f 9226 e13e 0402 983e
00000010: 2f2a 913e c32a f83f 16ce e5be 7773 d4bc
00000020: 4bc6 a0bf ef7b 51bf f36a 90bd 7e47 7c3e
00000030: 18cd e23e 3b25 d5bf cc0b 9e3e a08f cb3e
00000040: 8f88 2540 dccb 1440 3811 433f aa98 cd3c
00000050: f8e5 123f 8269 0c40 758d e23e 8d31 72be
00000060: 243a 7f3e f37b ee3f 68c4 b03d 2f5d acbe
00000070: 78d7 7e3e 9e4e 3440 220b d33e b7f0 8cbd
00000080: 9492 9abe de28 0a40 3c0d ab3e 7408 fabd
00000090: 46cd 3ebf 1f6d 0a3d bcb8 8e3e 9175 833d
000000a0: b81a 29bf cb25 35bf 75a2 a63e 3460 a4be
000000b0: 46e7 64bf 2877 c93f f920 f9be ef78 93be
000000c0: c1ba 86bf a549 583f b487 923e bd08 d83d
000000d0: 7485 eebd 80fa e6bf 10fb bdbe bb84 c9bd
000000e0: 8ac8 bb3f 13c7 15bd 1c7e 1f3f 1a8e b33e
000000f0: f599 0240 4933 953f 11d2 edbd 4035 8cbe
00000100: 5c56 ac3e bd86 0840 64b8 e43e e4ea 693e
00000110: 387b 9a3f dc79 96bc 4449 19bd 5870 cdbd
00000120: a314 78bf 274f 2a3f c0ef 3f3e 9b0d 9dbd
00000130: 183d 33bf 4dd4 0940 0439 113f 2844 7d3e
00000140: a5f9 a7bf 8b25 083f 0cb9 e33d d47a 903e
00000150: 6f9a 56bf dff4 e23f 2e58 413d 3f1d d0bd
00000160: 85f3 0040 21d9 0abf 9e09 233e 7fd1 fd3d
00000170: 08db 953c 767f 26c0 432c 6dbe f667 ac3c
00000180: 03d7 ab3c 6d86 dd3f 4739 f73d 7b30 a3be
00000190: 75ab 263e a906 f13f d4a8 80bd b428 c93d
000001a0: 8bea 34bf 12ee c6bf d776 a7be 4d9e e3bd
000001b0: 2436 9cbd 95b2 a7bd 56e5 033f 3392 6a3e
000001c0: 80ea 593e 54ae d2bf 5608 bbbe 8428 56bd
000001d0: c04b 03bf 4f55 c1bf e514 afbe e01b 0dbe
000001e0: 4465 abbf 4fbd c33f e5a2 853e e772 a13e
000001f0: 890f 71be 16cd 01bf c4c2 f5be 13bb be3d
00000200: 6bfb 8cbf d8ad b03f d230 983e c77f b23d
00000210: 1e7c 043f 6f3f 2340 ece7 043f 7c6e dc3d
00000220: 34cb 8b3e a2f6 f1bf 5796 d4be 941c 29bd
00000230: a79f f2be fdc7 c4bf 64cb a7be 7847 12be
00000240: 204e 15bf b721 1fbf 2770 e6be 4c39 0ebe
00000250: f910 bfbe cb46 1f40 9a89 083f 88f8 5b3e
00000260: 633e 98be 2944 9fbf 9aa0 85be 8cbe eabd
00000270: a838 8f3f 413a 4840 fbec 1f3f 58e4 2e3e
00000280: 34e6 0ebf 334d 22bf 5158 653e f21d 47be
00000290: a399 fcbd eb9b d43f e8ad a63e 4fab bd3d
000002a0: c562 de3e 9cdc b9be a1be 1bbe 7544 313f
000002b0: 8a34 abbf fc68 633e cc7a 49bd d84a 86bd
000002c0: 7c08 62bf 00dc ab3f 2bbe 123e dfb5 66be
000002d0: a19c d03f ac90 3c40 454e 243f 7c85 bc3d
000002e0: 9ea8 93bf f986 6340 3e58 a63e 3776 95be
000002f0: 7e37 a63d bd56 01bf 2bbe 283f 70bb 28be
00000300: b42f 93be 4452 2440 51f4 b03e f398 253d
00000310: 7cdc b83e af44 823e b6a9 8abd 88e7 4c3e
00000320: 2e02 793f 37fe 1bc0 d7ab cfbe f016 ee3d
00000330: 7f52 5abf 5a5a 09c0 74de d1be 4bad cc3b
00000340: 7f18 963e 03c8 1d40 c7cc 033f f7fe 703e
00000350: e943 1dbf d411 a4bf 68c5 71bc 9cff 3b3e
00000360: 5407 f0be 9963 58bf 6697 893e 24c1 62be
00000370: 649b 1d3f c55a cdbf f444 55be 778b eebd
00000380: d0c5 dc3f 13d2 973f 9a90 073f b544 94bd
00000390: 8e61 ac3f 5247 233f a17a 0dbe cbd8 583f
000003a0: cb1e 04bf 0b65 aebf b8a7 363e 08d7 18be
000003b0: 5e48 05bf c940 613f 927a 373e 51a9 08be
000003c0: a72e 213f fd4f 1140 2187 143f 405a e93d
000003d0: 8a26 09bf 61b8 24bf 0e9f d7be 43d4 8dbd
000003e0: 8962 2f3e 324e d43f 1907 ebbd 3dd1 d3be
000003f0: e3ad 13be 6728 4c40 894b 053f 3666 9c3d

fc1.bias f4 [64]
-1.0942789 -0.21616969 0.92017365 -0.47118843 -1.2946249 0.034203924 0.36042127 0.15193519
-0.63256174 -0.57069814 0.9621926 -1.0748069 1.0619413 -0.20864925 -1.8782978 -1.3967116
-0.10780515 0.22975825 0.9534619 -0.37632516 0.9452194 1.4417157 0.73273635 -0.5988827
0.34837216 0.21043189 0.43296885 -0.29794523 -0.54138815 0.27614108 0.36738056 -1.8348671
1.0239296 0.40175766 -0.98034513 0.25445604 -0.8075547 0.5736683 0.12139088 -0.02760952
0.77617615 0.22679123 0.6597165 -0.2782498 1.3709503 -0.4514629 -0.016423972 -0.7600837
0.6116843 1.1615919 0.19408357 -0.10959611 0.0056311362 0.7087538 0.71651834 0.4139728
-0.7763986 -0.6608696 -0.45780808 0.7952097 -1.1039807 -1.571341 0.75980645 0.76302433
00000000: 5511 8cbf 965b 5dbe 8090 6b3f 9c3f f1be
00000010: 45b6 a5bf 6a19 0c3d 2389 b83e e694 1b3e
00000020: 91ef 21bf 4619 12bf 4152 763f 4693 89bf
00000030: b1ed 873f 26a8 55be 106c f0bf 72c7 b2bf
00000040: f2c8 dcbd bf45 6b3e 1416 743f b1ad c0be
00000050: e6f9 713f 248a b83f 9c94 3b3f 6050 19bf
00000060: d65d b23e 757b 573e 18ae dd3e 478c 98be
00000070: 6a98 0abf 5d62 8d3e 4e19 bc3e eddc eabf
00000080: 2010 833f 2eb3 cd3e e6f7 7abf 1048 823e
00000090: e8bb 4ebf eddb 123f c89b f83d 5c2d e2bc
000000a0: 7bb3 463f f63b 683e 2ee3 283f c276 8ebe
000000b0: 4d7b af3f 2526 e7be 918b 86bc d894 42bf
000000c0: 5897 1c3f 0baf 943f d8bd 463e ed73 e0bd
000000d0: 6585 b83b e470 353f bf6d 373f 3ef4 d33e
000000e0: 0fc2 46bf c02e 29bf d265 eabe dd92 4b3f
000000f0: 3d4f 8dbf b421 c9bf ad82 423f 9055 433f

fc2.weight f4 [64, 64]
0.0154 1.5938687 0.28817475 0.24941263 3.4474137 -3.0127273 0.46004722 1.0899777
-0.25829452 0.091001466 -0.9251832 0.54819083 0.07390178 0.34726453 2.7301853 1.8199384
1.7380071 -0.07591954 -0.10542259 -0.31387445 -0.08333172 -0.13907579 -2.411334 -1.1574144
0.1092817 -1.4808553 0.35969836 0.042190686 0.2854354 0.11546411 -1.3095379 -1.6390903
0.2613364 0.9925924 0.2169409 0.24011701 0.7385775 1.243991 0.113070294 2.1263263
-1.0077456 0.63895166 -0.29754424 -0.7531126 -0.3271572 1.2640738 -3.1212611 1.1281258
-3.0568347 0.14362803 0.076768264 1.0079442 1.4138585 -0.5220685 -0.47968435 0.23330857
1.4412555 0.781588 -0.70473796 -1.1198986 -6.3645735 0.014849322 0.0897889 -4.81551
-0.013516709 -0.019098401 0.07532557 -0.08970178 0.04802977 -0.051751114 -0.09405163 -0.14377707
-0.14700529 0.08746851 -0.06673767 -0.020160034 -0.0014781939 0.05983909 0.07439331 0.067321524
-0.12820971 -0.051613253 -0.10951361 -0.10326163 -0.0059979903 0.081531055 -0.12874682 0.07565056
-0.0999935 -0.059728794 0.06474541 -0.058209684 0.011381969 -0.120582946 0.07100956 -0.046899505
-0.12713231 0.0020675398 -0.10554994 -0.13010132 0.0076148957 0.06330984 -0.0670989 0.023701541
0.07225103 0.04736285 -0.10148574 -0.04942275 -0.07500264 -0.13341384 -0.033762522 0.06037466
0.070525035 -0.024124566 0.0015071731 -0.07223673 0.058494095 -0.08722268 -0.122340664 -0.005649789
0.046161197 -0.11269894 0.07747526 0.0090393415 -0.122847855 -0.026925936 0.07263566 -0.13157639
-1.1671506 -0.12314276 0.24474846 -0.252137 1.7299359 -0.018652055 0.33321 0.32997635
-0.5595298 0.099088445 -0.15584512 -0.39170912 0.5294689 0.35576475 1.2230172 1.3824419
0.36426544 -0.055039383 0.09199759 -0.6184271 0.34949762 0.63307315 0.80868673 -0.30456206
0.37653756 0.22205278 0.40989017 -0.29162282 0.35547256 0.27434355 -0.19764952 -0.30916187
0.4639976 0.1264744 -0.65009534 0.36081094 -0.030969722 0.6201249 0.12535308 0.22540939
-0.03062351 0.22294709 0.08556166 -0.043218877 0.3458539 -0.013014033 -0.45397508 -0.33773994
-0.08785949 0.28158736 -0.6505391 -0.4931616 0.50994503 0.08558989 -0.08781981 -0.40025088
-0.0631748 0.3296899 0.123908445 -0.04741655 -0.85903215 -0.687219 0.46511173 -0.054829724
-0.9098054 -0.11340133 0.32613796 -0.2689645 1.5395073 -0.15097068 0.4778438 0.18744208
-0.37465242 -0.008306565 -0.021897355 -0.22827344 0.3900629 0.4191163 1.2640334 1.4113083
0.47480538 -0.024813877 0.26937366 -0.64341414 0.25009543 0.6288603 0.4050824 -0.3915134
0.28555408 0.31620646 0.25922298 -0.10108621 0.60057604 0.31408733 -0.21731043 -0.6709763
0.40693602 0.02073924 -0.5234971 0.3191968 -0.110534646 0.5212651 0.17424978 0.07489471
-0.07215129 0.31217077 0.11327888 -0.038383074 0.51505136 -0.11537622 -0.5267703 -0.32079813
-0.32244697 0.16157784 -0.4621669 -0.4109333 0.62824124 0.014093578 -0.21442173 -0.32684976
-0.040453684 0.19127116 0.2180323 -0.0620006 -0.74737465 -0.67950743 0.49940136 -0.18066186
00000000: 4850 7c3c e403 cc3f a48b 933e 0666 7f3e
00000010: 6da2 5c40 86d0 40c0 4f8b eb3e 6484 8b3f
00000020: 2e3f 84be fa5e ba3d ced8 6cbf 3c56 0c3f
00000030: d159 973d a8cc b13e 5bbb 2e40 bef3 e83f
00000040: 0477 de3f b47b 9bbd cde7 d7bd 27b4 a0be
00000050: d2a9 aabd e269 0ebe 4c53 1ac0 2826 94bf
00000060: 15cf df3d ab8c bdbf 622a b83e 24d0 2c3d
00000070: 9724 923e 7378 ec3d f09e a7bf b6cd d1bf
00000080: e2cd 853e 891a 7e3f c125 5e3e 3ce1 753e
00000090: 6a13 3d3f 193b 9f3f 6691 e73d bb15 0840
000000a0: cffd 80bf 5692 233f b857 98be fdcb 40bf
000000b0: 2681 a7be 2ccd a13f bec2 47c0 6d66 903f
000000c0: 2ea3 43c0 3a13 133e ae38 9d3d 5104 813f
000000d0: 51f9 b43f 48a6 05bf 3099 f5be 71e8 6e3e
000000e0: 0f7b b83f 2716 483f b569 34bf d658 8fbf
000000f0: 96aa cbc0 924a 733c 3ee3 b73d a818 9ac0
00000100: 3075 5dbc 4074 9cbc 4b44 9a3d 91b5 b7bd
00000110: ddba 443d faf8 53bd 249e c0bd 4c3a 13be
00000120: 8e88 16be b122 b33d c2ad 88bd a826 a5bc
00000130: f5bf c1ba d519 753d 855b 983d dedf 893d
00000140: 6849 03be 6b68 53bd ac48 e0bd d57a d3bd
00000150: ca8a c4bb c1f9 a63d 35d6 03be aeee 9a3d
00000160: 64c9 ccbd 2ea6 74bd 3e99 843d 476d 6ebd
00000170: 707b 3a3c 31f4 f6bd 766d 913d b219 40bd
00000180: f92e 02be 907f 073b 912a d8bd 4839 05be
00000190: 6086 f93b 97a8 813d 266b 89bd bc29 c23c
000001a0: 59f8 933d 8cff 413d c1d7 cfbd 826f 4abd
000001b0: fc9a 99bd a39d 08be 924a 0abd 6b4b 773d
000001c0: 6e6f 903d e2a0 c5bc 568c c53a daf0 93bd
000001d0: 8197 6f3d cea1 b2bd be8d fabd dd21 b9bb
000001e0: 8613 3d3d b4ce e6bd 59ab 9e3d bf19 143c
000001f0: a897 fbbd c893 dcbc 01c2 943d f6bb 06be
00000200: 3165 95bf 4532 fcbd 579f 7a3e 1a18 81be
00000210: 8a6e dd3f 32cc 98bc 809a aa3e a9f2 a83e
00000220: 583d 0fbf e2ee ca3d dd95 1fbe 198e c8be
00000230: 468b 073f cc26 b63e d48b 9c3f dbf3 b03f
00000240: 0081 ba3e fa70 61bd 3c69 bc3d 3d51 1ebf
00000250: 5af1 b23e 1511 223f 1806 4f3f 8fef 9bbe
00000260: 88c9 c03e ce61 633e 20dd d13e 964f 95be
00000270: 8000 b63e c276 8c3e a364 4abe 774a 9ebe
00000280: 1891 ed3e 8182 013e a66c 26bf 36bc b83e
00000290: 37b4 fdbc 81c0 1e3f 8f5c 003e b8d1 663e
000002a0: 28de fabc 3e4c 643e f43a af3d 4706 31bd
000002b0: c313 b13e d038 55bc 6c6f e8be 40ec acbe
000002c0: adef b3bd 382c 903e bb89 26bf ad7f fcbe
000002d0: c28b 023f c149 af3d dfda b3bd afed ccbe
000002e0: ca61 81bd 1dcd a83e b6c3 fd3d db37 42bd
000002f0: 88e9 5bbf 96ed 2fbf 2023 ee3e 2295 60bd
00000300: 02e9 68bf f53e e8bd 8efb a63e b7b5 89be
00000310: 930e c53f 0f98 1abe f1a7 f43e d1f0 3f3e
00000320: 71d2 bfbe 4218 08bc 1562 b3bc 83c0 69be
00000330: 53b6 c73e 6996 d63e d9cb a13f c0a5 b43f
00000340: b119 f33e 7946 cbbc 58eb 893e cab6 24bf
00000350: 820c 803e fdfc 203f f666 cf3e 7274 c8be
00000360: 2534 923e d0e5 a13e e0b8 843e 4906 cfbd
00000370: 5abf 193f 0ed0 a03e a086 5ebe 1ac5 2bbf
00000380: eb59 d03e 57e5 a93c e803 06bf c36d a33e
00000390: fd5f e2bd a171 053f 896e 323e 6662 993d
000003a0: 0ec4 93bd d9d4 9f3e c2fe e73d 9237 1dbd
000003b0: 68da 033f 5e4a ecbd 6bda 06bf a73f a4be
000003c0: c517 a5be a974 253e 24a1 ecbe d965 d2be
000003d0: 6bd4 203f c0e8 663c 5f91 5bbe da58 a7be
000003e0: c3b2 25bd 96dc 433e dc43 5f3e 57f4 7dbd
000003f0: f253 3fbf 33f4 2dbf 89b1 ff3e 6cff 38be

fc2.bias f4 [64]
0.5022512 -0.08544702 0.84140766 0.7417306 0.6986806 1.489498 0.8484214 -0.09717506
0.97006094 0.70638585 0.582468 -0.071606524 -0.15028132 -0.24502099 -0.023742229 0.8162906
-0.06617105 -0.052301556 0.76858896 0.8253199 0.010644268 0.071685754 0.6088307 0.690834
0.06322545 0.04952711 -0.228843 -0.1186845 0.87786126 0.7721503 0.047025666 0.7139826
0.9959918 0.60205126 -0.13291463 0.7668915 0.83687085 -0.04069399 -0.10848403 0.8322203
0.88360906 0.8565222 -0.014709903 0.7826188 -0.14606754 0.05063827 0.9271228 0.5319416
0.81698257 1.0487889 -0.01874553 -0.07867088 -0.02364689 0.757833 0.78323287 0.62348086
-0.12260319 0.77064383 0.86144066 0.6340011 -0.036485687 -0.037596576 0.54667956 0.92779285
00000000: 8993 003f d9fe aebd 7e66 573f 0ee2 3d3f
00000010: bbdc 323f dfa7 be3f 2532 593f b803 c7bd
00000020: ea55 783f b4d5 343f 9f1c 153f 71a6 92bd
00000030: 59e3 19be c8e6 7abe 107f c2bc 6cf8 503f
00000040: b084 87bd 283a 56bd 3fc2 443f 2a48 533f
00000050: 4c65 2e3c fbcf 923d 54dc 1b3f 7fda 303f
00000060: 587c 813d f0dc 4a3d d255 6abe dc10 f3bd
00000070: 84bb 603f a4ab 453f fc9d 403d 90c7 363f
00000080: 52f9 7e3f 0820 1a3f c61a 08be 0053 443f
00000090: 2b3d 563f beae 26bd e02c debd 640c 553f
000000a0: 3434 623f 0a45 5b3f ce01 71bc b559 483f
000000b0: bb92 15be 136a 4f3d eb57 6d3f 532d 083f
000000c0: c525 513f b73e 863f 3a90 99bc 331e a1bd
000000d0: 1fb7 c1bc 5801 423f f381 483f 719c 1f3f
000000e0: 6217 fbbd ea48 453f 6087 5c3f e54d 223f
000000f0: 0472 15bd defe 19bd 31f3 0b3f d583 6d3f

fc_out.weight f4 [1, 64]
-2.7221859 0.022530193 -0.2578455 -0.1960166 -0.17856975 -1.6778346 -0.23670445 0.11132081
-1.8377289 -0.1948341 -0.36650586 0.06226449 0.05045011 -0.03465817 0.017916175 -0.13217135
0.02276679 0.020689877 -0.17761947 -0.49315327 0.0738213 0.034673713 -0.2931201 -0.32913932
0.039452273 0.017703075 0.104323484 -0.02124697 -1.9005096 -0.33477053 -0.006110158 -0.13601129
-1.4210825 -0.37366074 0.10057117 -0.15579201 -0.24348906 0.041717257 0.0043111187 -3.0006447
-0.2794195 -0.85157883 0.09403022 -0.16614008 -0.02196728 0.080624945 -0.34059072 -0.31679365
-0.22466232 -1.3297433 0.077731185 -0.080634736 0.054882243 -0.7680925 -0.24244475 -0.32340798
-0.044110242 -0.14821562 -1.2607238 -0.1688461 0.005384404 0.063163586 -0.31383657 -0.29025996
00000000: 4b38 2ec0 3d91 b83c 5304 84be 93b8 48be
00000010: fdda 36be 49c3 d6bf a762 72be 2afc e33d
00000020: b33a ebbf 9782 47be a8a6 bbbe 0d09 7f3d
00000030: c6a4 4e3d baf5 0dbd f1c4 923c ed57 07be
00000040: 6b81 ba3c d17d a93c e1e1 35be 967e fcbe
00000050: 9f2f 973d 0606 0e3d d613 96be f384 a8be
00000060: b598 213d 0a06 913c 8da7 d53d 200e aebc
00000070: e643 f3bf 0b67 abbe b837 c8bb 8b46 0bbe
00000080: 08e6 b5bf 7650 bfbe 42f8 cd3d f187 1fbe
00000090: 3255 79be b7df 2a3d 4944 8d3b 900a 40c0
000000a0: 1310 8fbe 1201 5abf ea92 c03d a020 2abe
000000b0: baf4 b3bc b11e a53d e861 aebe c732 a2be
000000c0: e10d 66be 0735 aabf 8731 9f3d d323 a5bd
000000d0: 34cc 603d b6a1 44bf 7043 78be bb95 a5be
000000e0: f1ac 34bd d6c5 17be 665f a1bf fee5 2cbe
000000f0: a86f b03b e95b 813d 30af a0be f49c 94be
